model.pth (torch, 249903 bytes, 10 tensors)

features.0.weight f4 [6, 1, 5, 5]
00000000: 5be6 52be 4c21 903d 7fe6 58be f44b 1cbe
00000010: 62f5 34be 6a59 a23d 2035 9abd 8c0e 7cbe
00000020: fd71 22be dd5a c1be b359 203e 97e3 a3bd
00000030: 0f15 96be e845 3dbe 12f3 99be 68bb 2e3e
00000040: b8a6 9f3e 6bc8 4b3e 16da af3d 0cdd 053e
00000050: 3729 b63e 964f c73e d037 ef3e 6985 263f
00000060: 4fa2 103f 4a7c 333e 2b42 413d 703c 313e
00000070: 0466 ae3d 8910 a53e 831b 303e dcde e83d
00000080: 3bd9 403e 28e2 5f3e 2650 a83e ad7b ebbd
00000090: 9b07 9e3e 1af8 b83e 12d4 103e c0aa 9f3e
000000a0: ff5f da3d ae16 853e bef3 833e 8eee c73e
000000b0: 3216 713e 3394 e1bc c3b8 343e 5f8a 81bd
000000c0: 830a 873e 0567 d93c 9800 9e3e 3ea9 32bb
000000d0: 39e0 bc3e 20db 953e 3d5e 6b3e 0491 a93e
000000e0: d167 bd3e 1682 9b3e d956 823e 15d0 f43e
000000f0: a0f2 a8bc 239f 0ebc 651f d83e 6d22 413f
00000100: 8578 943e 1122 03be c9b5 e63c c26f 133f
00000110: 6e1b 133f 6889 8a3d fc74 b5be a9f7 903d
00000120: 4cc2 553e 8a46 cd3e 17f9 8cbd d953 27be
00000130: fbf8 aebd 097c c23e 1cdf ae3e fcac 883e
00000140: 5e5b 2fbd 9070 d73e ca1f ca3e 2bf0 bb3e
00000150: 6813 b8bc 1f96 813e a36f 9b3e f8d8 df3d
00000160: 1d0d 16bd 1a60 83be aaa0 91bd 1250 673d
00000170: bbca ba3d f1a9 dcbd bb1a 61be 0197 013e
00000180: cf4d 043e 09de 18be 0dd4 c33c 5e9c 35bd
00000190: f1c0 2a3d 1cb8 82bd 2f9f cd3d 6233 1b3e
000001a0: deff e83d 44df 05be 66cd 843e 825d da3e
000001b0: df76 a03e b6b7 21be 9143 5e3e de67 093f
000001c0: 7dc8 153f 5e9a 993e 9407 13be 1913 c63e
000001d0: 3764 003f 3183 0c3f 6030 cc3e 537e 1b3e
000001e0: 39dd b13c 46ec f93e 0fbd e03e cbe8 623c
000001f0: 85e1 213e 20b3 50be d988 9cbc a51e 3b3d
00000200: ceb2 363d 460d 823d 2058 313c 5af6 273e
00000210: 7a89 cf3e d977 ec3e 4c9d 093e 24ba e73d
00000220: 1667 ad3e 12b0 533e 974c 903e f103 a93e
00000230: 7228 e13d dd8f 943c 6a0c 0f3e 047c 783d
00000240: b4d7 793e db5e b83b 477c a4be 61cc 1ebe
00000250: 57aa 5abe 7204 98bc
-0.20595686 0.07037601 -0.21181677 -0.15263349 -0.17671731 0.07927211 -0.07529664 -0.24614924
-0.15863796 -0.37764636 0.15659218 -0.08002394 -0.2931294 -0.18483698 -0.3006826 0.17063677
0.31181884 0.19900672 0.085865185 0.13072604 0.3557832 0.38927907 0.4672227 0.6504732
0.56497663 0.17527881 0.047182243 0.17308211 0.08515552 0.32239178 0.17197995 0.11370632
0.18832867 0.21863616 0.32873648 -0.11498199 0.30865178 0.36126786 0.14143398 0.3118496
0.10662841 0.25993866 0.25771898 0.3904919 0.23543623 -0.027536487 0.17648606 -0.0632522
0.26375207 0.026538381 0.30859828 -0.002726152 0.36889818 0.29268742 0.22985168 0.3311845
0.36993268 0.30372685 0.25456885 0.47815004 -0.020623505 -0.008704933 0.42211452 0.75443155
0.289982 -0.12805964 0.028162854 0.57592404 0.5746373 0.067644894 -0.35440814 0.070784874
0.208749 0.4009288 -0.068834476 -0.16340579 -0.08543583 0.37985256 0.34154594 0.26694477
-0.042811744 0.42078066 0.39477378 0.3670667 -0.022470191 0.25309846 0.3035861 0.109300554
-0.0366336 -0.25659257 -0.07110722 0.056472845 0.09120699 -0.10774601 -0.21982853 0.1265526
0.12920307 -0.1492845 0.023904825 -0.044338576 0.04168791 -0.06382772 0.100401275 0.1515632
0.11376928 -0.1307345 0.25937957 0.42649466 0.3134069 -0.15792736 0.21705462 0.53674114
0.58509046 0.30000585 -0.1435836 0.38686445 0.50152916 0.5488768 0.39880657 0.15184908
0.021711932 0.48813075 0.4389424 0.0138494475 0.15808685 -0.20380831 -0.019108223 0.04568352
0.044604115 0.06350188 0.010824233 0.1640257 0.40534574 0.46185187 0.1343891 0.113148004
0.3386771 0.20672634 0.28183433 0.3301082 0.109940425 0.018135006 0.1396958 0.060665146
0.2439869 0.005626542 -0.32126066 -0.15507652 -0.21354042 -0.018556807

features.0.bias f4 [6]
00000000: 4365 c53d 91ca 79b9 158c 2dba 9fdf 273b
00000010: 4fff 68ba a93d 993a
0.09638455 -0.00023821952 -0.00066203 0.0025615466 -0.00088881416 0.001169135

features.3.weight f4 [16, 6, 5, 5]
00000000: 0ac9 d63d d523 bf3d 0d14 00be 0c85 da3b
00000010: 1a84 2bbb 0e08 f53d 3075 de3d cdf3 273e
00000020: a8c9 f8bc 5c1c b2bd 5a59 603d 2808 8a3e
00000030: d1b6 943e 1b79 433e 73cf cc3d 5db0 16bd
00000040: 9899 9bbd e53a 4e3d bc71 1b3e ce4b 2f3e
00000050: aa4f 7d3c 8196 babd a0f7 e6bd 6a06 a53c
00000060: 21af 39bd ced6 69bd 7257 cabd b01b 13be
00000070: df5d 643c 9753 9a3d ef41 583d 2a94 bdbd
00000080: c051 41be bb47 01bd 8324 8ebd a65d c83d
00000090: 9da8 1a3e 39a1 b73c 7127 d0bd 4372 76bd
000000a0: b7dc e8bc e9cb 5b3c 5993 b03d f188 c13d
000000b0: 225a 83bd 7bcd 4abd a234 8ebd 18fa 5e3d
000000c0: acb5 813d 7b28 db3d 0604 01bb 9e8d 47be
000000d0: d88a 64bd 81e5 f0bc 71aa 663c cc28 b23c
000000e0: e0b7 03be 5cc5 d7bd 0a5a 29be f2f1 083b
000000f0: fb09 5b3e c16a 083e 2546 4f3d 2979 29be
00000100: dd36 14be 8f3c 0d3e 6d8b 2f3e 6c6e 6b3e
00000110: 6f15 073e c78f d3b8 3700 c7bd c8d7 cabc
00000120: 2b81 e83d 6b7b 533e e9a1 693d 9c4f 6fbd
00000130: 7788 8b3d b9c2 49bd 1d4b 9b3d cf68 7cbd
00000140: 86e8 66bd e5d7 9a3c 83ac b0bd b097 d4bc
00000150: 3328 61bc 2647 923b d066 45bd ce3f a6bd
00000160: 9553 e5bc 0607 263d b9ed 14bd aa0c 8b3c
00000170: f3c3 d2bc 6d03 423a c86e e2bd bd5e 5c3d
00000180: 3ff6 66bd 2aa5 3bbd 487a 28bd 6959 04b9
00000190: 8c6b 873d 44df eabc 83a6 07be 1a54 8cbd
000001a0: 0986 5639 b5d8 043e ee88 a33d 434c ebbd
000001b0: dfb7 2bbe e566 4cbe 71cc 023e f1eb 703d
000001c0: eaa0 de3d be23 3bbd 4dbf 33be 03e0 c2bb
000001d0: bd5a da3d a7e1 023e 59ec 013e 021f 44bd
000001e0: 5192 0abe e624 1ebe 9da4 b8bd a474 003d
000001f0: 4710 943c 2aca 87bd 3a8d bdbd c5d7 a93d
00000200: 3bd6 3f3d 5b61 013e 6785 1a3d 23d5 cebd
00000210: c7e2 13bd 02bc 5cbc 5807 7e3d d586 c63c
00000220: 9684 f43a 7f18 163d f0e9 66bd 4f33 c5bd
00000230: 0e98 5f3d fb21 e63d 1523 8e3d 9958 693b
00000240: 8b70 b6bd 33cb afbd 96ed 8e3d 6535 23bd
00000250: e3e5 b13d bd81 5dbc 9d55 a93d f1ca 0a3d
00000260: 2a8e 173c 2339 ad3c 5cff 45bd 1aed b33d
00000270: 7d36 99bd 2585 24bd 410d 8fbc 9344 2dbb
00000280: 6b28 b43d ae97 3d3d d2f0 833d 6060 6b3d
00000290: 4ea6 a0bb 177e da3c b90c 213e e1e4 1a3e
000002a0: f92d 143e 29d3 0cbd 3dca dcbd d1ef 713b
000002b0: 96d7 71bd 879f 5b3c af54 cbbd 9e5f 90bd
000002c0: 8955 7bbd a1ed 5e3d 76ae 42bd b7a7 a7bc
000002d0: e636 d5bc d9a6 e7bd 26e1 d7bb d97f 083d
000002e0: c8d7 04be 538f a9bd 6097 d0ba adf0 8dbd
000002f0: 2599 e2bd 960e 0f3d ba80 f23d 807b e43c
00000300: ea80 4cbd cc0e af3d 51c5 963d b359 483d
00000310: 56f3 df3d 85d7 f63d ba05 d63d 5440 073d
00000320: 36b5 58bd 04d5 3d3d 51db febc 687a 68bc
00000330: be9a a33d c0af 9b3d ce61 0fbe 0ca6 9b3b
00000340: c977 39bd 4029 04be 287f 303d 496d 26bd
00000350: d4ee abbd 34f0 ffbd 4887 9e3c 7ad3 2a3d
00000360: 0d80 373d 7186 a73c b23f cfbc da1d d73d
00000370: 93d8 043e d100 c53d b067 f63d 0f38 163e
00000380: a935 94bc 3b22 0dbd 47af 5b3d a918 c03c
00000390: a453 07bd 591c 863d 5788 b93c d85e a53d
000003a0: 4c39 70bd b852 823d 31c7 253c 73c0 2cbd
000003b0: f2eb 1bbc 3826 8dbd 1044 9dbc 05f3 183b
000003c0: e242 1fbd bc5a 9fbd d526 84bd 44e1 2f3d
000003d0: 9a8f 3bbd ebd3 993d a658 8d3b f3e9 10bd
000003e0: 6dd7 ff3d eaba 373d 5c00 1b3d e68a adbd
000003f0: 0164 6bbd d5a3 54bb 8852 00bd d26e 0a3d
0.10487564 0.09333006 -0.12507649 0.0066686925 -0.0026171268 0.11964427 0.108621955 0.16401596
-0.030369595 -0.08696815 0.054772712 0.26959348 0.29045728 0.19089167 0.10000505 -0.036789287
-0.07597655 0.050349135 0.15180105 0.17118761 0.015460888 -0.091107376 -0.112776995 0.02014466
-0.04533303 -0.05708962 -0.0987996 -0.1436603 0.013938396 0.07535475 0.052797254 -0.09256776
-0.18878841 -0.031562548 -0.06940558 0.09783487 0.15103383 0.022415744 -0.10163773 -0.060167562
-0.028425558 0.013415315 0.08621854 0.094499476 -0.06413676 -0.049512368 -0.06943633 0.054437727
0.06333479 0.107010804 -0.0019686236 -0.19487616 -0.055796474 -0.029406311 0.014078722 0.02174797
-0.12863111 -0.1053569 -0.16538253 0.0020896164 0.21390526 0.13321973 0.050604004 -0.16550125
-0.14474054 0.13792633 0.1714303 0.22991341 0.1319177 -0.00010088045 -0.09716838 -0.024761096
0.11352762 0.20652549 0.057039175 -0.05842553 0.06813138 -0.049257968 0.07582686 -0.06162339
-0.056374095 0.018901775 -0.08626654 -0.025951236 -0.013742494 0.004464048 -0.048193753 -0.081176385
-0.027993957 0.04053404 -0.036359522 0.016973812 -0.025728201 0.0007401023 -0.11056286 0.053801287
-0.056387182 -0.04581181 -0.04113224 -0.00012621809 0.0661231 -0.028670914 -0.13247113 -0.068519786
0.00020458562 0.12973292 0.07985102 -0.11489155 -0.1676936 -0.19961126 0.127733 0.05881876
0.10870536 -0.045688383 -0.17553444 -0.0059471144 0.10661838 0.12781392 0.12687816 -0.047881134
-0.13532378 -0.15443763 -0.090157725 0.031361237 0.018074168 -0.066303566 -0.092554525 0.08293108
0.046835165 0.12634794 0.03772488 -0.10099246 -0.036104944 -0.013472559 0.062018722 0.024234215
0.0018655236 0.036644455 -0.056375444 -0.09628927 0.05458837 0.1123695 0.06940285 0.0035605787
-0.089081846 -0.08583679 0.0697891 -0.039845843 0.086864255 -0.013519702 0.082682826 0.033884946
0.009250203 0.021145409 -0.048339233 0.08785458 -0.07481096 -0.04016604 -0.017462375 -0.0026438578
0.087967716 0.04628723 0.06442417 0.057464957 -0.0049026376 0.026671452 0.1572751 0.15126373
0.14470662 -0.034381066 -0.107807614 0.0036916623 -0.05904349 0.0134047335 -0.099282615 -0.070494875
-0.06136087 0.05442584 -0.04752966 -0.020465715 -0.026027154 -0.113111205 -0.006588119 0.03332505
-0.12972939 -0.0827929 -0.0015914254 -0.06930671 -0.11064366 0.03492602 0.11840959 0.02789092
-0.04992763 0.08547744 0.07361854 0.04891367 0.109350845 0.12052826 0.10450311 0.033020332
-0.05290719 0.046345726 -0.031110438 -0.01418934 0.07988499 0.07601881 -0.14002153 0.004750019
-0.04528025 -0.1290636 0.043090016 -0.040631566 -0.08395162 -0.12496987 0.019351617 0.041705586
0.044799853 0.020449849 -0.025298927 0.105037406 0.12973242 0.09619296 0.120314956 0.14669822
-0.018091993 -0.034456473 0.053633954 0.023449259 -0.03303875 0.06548376 0.02264802 0.08074731
-0.058648393 0.063634336 0.010118292 -0.04217572 -0.009516703 -0.06892055 -0.019197494 0.002333821
-0.038882144 -0.07780978 -0.06452719 0.04293944 -0.045791246 0.07511123 0.0043135462 -0.03537936
0.12492261 0.04485599 0.03784214 -0.084737584 -0.057468418 -0.0032446284 -0.031328708 0.033797093

features.3.bias f4 [16]
00000000: c412 a7bd dcdb 03bd 69dc f8bc 8c23 de3a
00000010: b97a acbd 75a4 8f3d ea04 3abd 7dd0 a2bc
00000020: 1fff a23c 266a 56bd 6d99 4cbd 820c 88bd
00000030: f6d6 ad3b 9084 3cbc 50f1 103d 2f59 7bbd
-0.08157876 -0.032192096 -0.030378537 0.001694785 -0.08421845 0.070137896 -0.045414843 -0.019874806
0.019897042 -0.052347325 -0.049951006 -0.06643011 0.0053051664 -0.011506215 0.035386384 -0.06136435

classifier.0.weight f4 [120, 400]
00000000: cb79 863c 2c2e 463d 7c10 373d b1b0 b1bb
00000010: 4466 613c 950c c8bb 4f8e 4c3d 7f43 dabc
00000020: 2937 393d e33a 34bd 1dc9 1cbd cdc3 863c
00000030: 469e 0ebd aa52 e63c 17e5 b1bc c8af d8bc
00000040: a082 093d 13c9 1c3c 9f82 05bd e8a7 2abd
00000050: 0013 26bc b1bc e3bc 39fe 023b c6a5 be3c
00000060: c6e6 94bc 9c03 b3bc 166c 18bd 0ab0 36bd
00000070: ce00 24bd d6a0 1ebd a241 ac3b 8107 ed3c
00000080: fb69 dfba 6471 f23c 5933 49bc ae9b e23b
00000090: bc11 b63c aa74 833c b059 b53c 1bdc 2a3c
000000a0: ae79 b5bc d775 e3bc 0493 70bc 6005 07bd
000000b0: 7768 d0bc 9ccb 89bc aa69 1abd eb05 8eba
000000c0: 70a6 fe3c a914 3dbd 0538 3abd 8a48 e53b
000000d0: 7f44 0f3d 1a18 703c 3cf2 1e3d 1318 333d
000000e0: bfce bb3c e90a 6e3c 26f2 84bc 9f2a fe3c
000000f0: eae2 e83c 76db 1d3c 21c1 d3bc 731b 2c3a
00000100: e408 0fbd 9108 36bd 8354 34bd 09bc 66bb
00000110: b5cd 4fbc a3dc 2cb8 d4c1 65bc 8175 a6bb
00000120: ff73 063c cdad 9ebc a92e 13bd 03c4 87ba
00000130: 72e2 983c d481 b93b fdcc 58bc a6cf 2a3d
00000140: bc59 9abc 499c d0bb 8bef 1a3a ad2f d23c
00000150: 57eb 28bd ea8a ef3b 6b33 423d 7d6c 27bd
00000160: 1f29 07bd 3b64 003d 5e4d 8f3c 2b65 4fbc
00000170: cac9 fcbb 13cf 1d3d 1a72 763c 6214 703c
00000180: 2cf5 e1bb f1cf 2d3d b270 f1bc a72c a23b
00000190: 8b21 e43c d167 a13c 3ab7 e33c 305b 3dbb
000001a0: ea5f 4a3d f526 22bd ab8f 043d ce47 0dbd
000001b0: 5bc7 3bbd 9542 af3c 5293 463d 08c2 8fbc
000001c0: 4a9c 333d 4493 c33c f2eb 223d c9bc 283d
000001d0: 49bf 21bd de08 e3ba 3907 8ebc b5d3 18bd
000001e0: 17fe 543c 8a8f 1c3d 83c8 4bbc b8c0 20bc
000001f0: 4e19 47bd 18ba 2c3d 0b5d 1cbd ff81 6e3c
00000200: 976e 013c 9613 13bd 5c30 0f3d 37cf 62bc
00000210: 24b8 0d3d e026 013d 1d36 293c 6299 d53c
00000220: 6be8 ee3c b8e3 853c f5cb b33b d97a 84bc
00000230: bdbe 40bd a4d9 da3c ffdd d63c 8e41 1d3d
00000240: 2236 993c 2e7f 3f3b 912a a9bc 7bf1 9abc
00000250: d863 ff3c 1b9b 7d3c a8c4 a9bc 6014 423d
00000260: 534d b8bc 0d29 8dbb ec23 9c3a f7a7 663c
00000270: 88a8 683d ec8b bd3b 77dc e6bc 7d46 29bc
00000280: 0416 093b d2ca b73c a7aa dd3b 3129 93bc
00000290: 0230 943c d67c aa3c 1a06 8cbc 9109 463d
000002a0: 0742 643b 19fc 9a3c 8f84 a1bc cc05 34bd
000002b0: cc44 95bb f154 583c 421f a3bc b5d2 b83c
000002c0: b349 473c 293b e03c ec29 313d 5326 713b
000002d0: 5e88 023d acc9 4f3b 4654 133d d991 a339
000002e0: e2ec 57bb e5e6 143d 42a1 ea3c 0f7e 25bd
000002f0: 834a 8b3b f6c5 88bc 1bce 453d 5d0a d53c
00000300: 6953 c63c cc2e 8bbc c482 cf3b 1768 b63c
00000310: 8282 42bc 27ab 8a3c 71c3 26ba 47f3 db3b
00000320: 3c18 2b3d 73fd b9bc f6bf a63c 684e 0cbc
00000330: d9a4 873c 52a5 20bd ee7a e8bb d7b0 e83a
00000340: be71 173d ee82 bc3c 37f9 33bc 4d8c beb9
00000350: 2238 c2bb 0076 213d e53a 073d 8edd a2bc
00000360: 3590 e438 c917 38bc a822 8abc 946f 3bbc
00000370: 40b6 573b 880c 713c 4d67 06bb a33a 10bd
00000380: abbb 21b9 f6ca 16bd 6266 673a 9445 82bc
00000390: 150d febc d024 8fbc ddcf f53a 947a edbc
000003a0: 7232 edbb 2873 c53c e864 c1bc e530 ab3a
000003b0: 4b40 c4bc a803 efbc 0640 593c 6056 183d
000003c0: 78ab a73b 6ee3 acb9 8d7c bb3b 6351 013b
000003d0: 579c 113d d49b 4abd 09a7 0c3d 23f1 91ba
000003e0: 0796 cab9 27dd cc3a a0c0 903b 3635 7bbb
000003f0: 20d6 1c3d b239 963c f46c 7ebb 24f5 38bc
0.016415497 0.048383877 0.044693455 -0.0054226746 0.013757292 -0.0061050155 0.049940404 -0.026643513
0.04521862 -0.04400147 -0.038277734 0.016450787 -0.03481891 0.02811559 -0.021715684 -0.026451007
0.03357184 0.009569424 -0.032595273 -0.041664034 -0.010136366 -0.027799936 0.0019987954 0.023272406
-0.018176448 -0.021852307 -0.037212454 -0.044601478 -0.04003983 -0.038727604 0.0052568475 0.028934242
-0.0017045134 0.029595084 -0.012280309 0.006915531 0.022225253 0.01604684 0.022137493 0.010428454
-0.022152748 -0.027766151 -0.014683489 -0.03296411 -0.025440438 -0.016820721 -0.037698425 -0.0010835504
0.031085223 -0.04616228 -0.04546358 0.0069971727 0.034977432 0.014654184 0.03880523 0.04372413
0.022925733 0.014528968 -0.016228747 0.031026183 0.028428514 0.009634843 -0.025848927 0.00065653695
-0.034920588 -0.044441763 -0.04402591 -0.0035207293 -0.012683322 -4.121348e-05 -0.014023263 -0.0050799255
0.008206367 -0.019369984 -0.03593317 -0.0010358099 0.018662665 0.0056612287 -0.013232467 0.041701935
-0.018841617 -0.006366287 0.00059103285 0.0256575 -0.041240063 0.007310261 0.047412317 -0.040874947
-0.0329982 0.031345587 0.017492946 -0.012658398 -0.007714485 0.03852756 0.015041852 0.014653297
-0.006895682 0.042434637 -0.029472683 0.0049491706 0.027848026 0.019702824 0.02779733 -0.0028893463
0.049407877 -0.039587934 0.032363575 -0.034492306 -0.045844417 0.021394053 0.04848034 -0.017548576
0.04385022 0.023873933 0.039775796 0.041195665 -0.039489064 -0.0017321368 -0.017337428 -0.037311275
0.013000033 0.038222827 -0.012437942 -0.009811573 -0.048608117 0.04216966 -0.03817467 0.014557361
0.007899902 -0.03590735 0.03495823 -0.013843349 0.03459944 0.031531215 0.010327843 0.026074115
0.02916356 0.016343936 0.00548696 -0.01617186 -0.047056902 0.026715107 0.026228903 0.038392596
0.01870257 0.0029220092 -0.02065018 -0.018913975 0.031175539 0.015478875 -0.020723656 0.047382712
-0.022497809 -0.004307872 0.0011912561 0.014078132 0.05680135 0.0057845023 -0.028181298 -0.010331747
0.0020917663 0.02243558 0.006764728 -0.017963978 0.018089298 0.02081148 -0.017092753 0.048348967
0.0034829394 0.018919038 -0.01971653 -0.04395084 -0.0045553204 0.013203845 -0.019912366 0.02256141
0.012163567 0.02737196 0.04325287 0.0036796525 0.03186833 0.00317059 0.03596904 0.00031198448
-0.003294759 0.03635301 0.028641347 -0.040403422 0.004250826 -0.016695958 0.04829226 0.026005918
0.024209695 -0.016990088 0.006332727 0.02226643 -0.011871936 0.016927315 -0.00063615205 0.0067123505
0.04177116 -0.022703862 0.020355206 -0.008563615 0.016558098 -0.03922016 -0.0070947325 0.0017752898
0.036973707 0.02301165 -0.01098471 -0.00036344156 -0.0059271017 0.039419174 0.03301515 -0.019881036
0.00010898748 -0.01123614 -0.016862229 -0.0114401765 0.0032915026 0.01471246 -0.002050835 -0.03521217
-0.00015424068 -0.036814652 0.0008827207 -0.015902318 -0.031012097 -0.017473608 0.0018753965 -0.028989114
-0.0072386796 0.024102762 -0.023607686 0.0013060836 -0.023956439 -0.029176548 0.013259893 0.03719175
0.005116876 -0.00032975845 0.0057216347 0.0019732348 0.035549488 -0.049465016 0.034338985 -0.0011134486
-0.00038640221 0.0015629873 0.004417494 -0.0038331277 0.038290143 0.018338058 -0.0038822265 -0.011288915

classifier.0.bias f4 [120]
00000000: 66d9 23bd 0dfd b1bc 6f2c b8bc 3404 00bd
00000010: df9e 1a3d 32b6 a43c 9035 273d 6917 5e3d
00000020: ebfd 8b3c ddb4 c9bc 9a91 d7bc ce4c 7f3d
00000030: 4fad 113d 100b 013d 1943 443d 3920 3e3d
00000040: a3d0 04bc e4a9 9bbb 9cce d7bc c0e0 aabc
00000050: 146b febc 08d5 573d 32bc 41bd 92bd 903c
00000060: d96f 0abd 53d8 333c 3acf 613d 0fd1 7b3d
00000070: 8097 973d 90a7 8dbc aa21 b03c cb09 dc3c
00000080: e620 133d f738 ebbc 89b1 4b3d 11f4 ebbc
00000090: 73e5 903b 463d b6bc c838 363d f6cb 013b
000000a0: 34c6 d03c d3e5 1b3c e7aa 9cbb 3fa8 643c
000000b0: 1e7e 1d3d 9044 2dbd a544 8abc 7e6f 09bd
000000c0: 3e6c ccbc 77e5 3d3d 822c e6bc 87fc 8cbc
000000d0: 00bb d43c a8b4 0cbd 22e4 493d fc7f fe3c
000000e0: f5da 21bb 5f6a 743d 2b5c cebc 5087 0a3d
000000f0: 9a9f 50bd 4189 0dbd 2f37 473d 39d7 05bd
00000100: 7d0f 733d 6a4a c03c 493b 263d a244 3abc
00000110: 8df4 48bb a4be 123d 0e10 35bd c473 3e3d
00000120: d736 0abd e0bf 403d f9a0 a7bc 03d1 e03c
00000130: 9ab7 98bc cfee 01bd 7688 3c3a 7cb2 173d
00000140: 6d98 1ebd 13ad 243d 1769 953c f7f7 0ebd
00000150: f276 2dbd 3cfa 0fbd 1b43 f33c 3829 aa3c
00000160: cbf4 333c 37f0 26bc efc9 1abd 0626 2e3b
00000170: 2746 413d aa37 4a3c d9f3 df3c 9fb2 26bc
00000180: 889b f33c 6220 6f3d 4443 673d f53c 40bd
00000190: c923 a83c 86c1 cbbc fbb5 87bc 42dc 3f3b
000001a0: 8110 d5bc 97ca 453c f54c 15bd 31ee 1abd
000001b0: 98c6 e43c 80b2 06bd 0175 d43b 5229 48bd
000001c0: a475 a8bc 993b 8a3d 8f5b c9bc edd9 d13c
000001d0: 619d 273d ea25 273d 7554 143c 7399 be3c
-0.04000225 -0.02172711 -0.022482125 -0.03125401 0.037749168 0.020106409 0.040822566 0.054221544
0.017088851 -0.024622375 -0.026314545 0.062329106 0.03556567 0.03150469 0.04791555 0.04641745
-0.0081063835 -0.004750477 -0.026343636 -0.020859122 -0.031056918 0.052693397 -0.047298618 0.01766852
-0.033798072 0.010976869 0.055129267 0.06147867 0.07401943 -0.017291814 0.021500427 0.026860138
0.035920046 -0.028713686 0.049729858 -0.028802903 0.0044218837 -0.022246014 0.044487745 0.0019805408
0.025485136 0.009515244 -0.0047811153 0.013956129 0.038450353 -0.042301714 -0.016878435 -0.033553593
-0.024953958 0.046361413 -0.028097395 -0.017210258 0.025968075 -0.034351975 0.04928983 0.031066887
-0.002469716 0.059671756 -0.025190433 0.03382045 -0.050933458 -0.034554724 0.04863661 -0.032675955
0.059340943 0.023472983 0.040583882 -0.011368902 -0.0030663342 0.03582634 -0.044204764 0.04649712
-0.033743706 0.047057986 -0.0204625 0.027443415 -0.018642236 -0.031721886 0.0007191965 0.03703545
-0.038719583 0.04020412 0.018238587 -0.034904446 -0.042349763 -0.03515075 0.029695084 0.020771608
0.010983656 -0.010189108 -0.037790235 0.0026572957 0.047186043 0.012342373 0.027337955 -0.0101744225
0.029737249 0.058380492 0.056460634 -0.046933133 0.020524876 -0.024872553 -0.016566267 0.002927557
-0.026008846 0.012072227 -0.036450345 -0.037824813 0.027926728 -0.032885075 0.0064836745 -0.04886753
-0.020563908 0.067496486 -0.024579791 0.02561661 0.040921573 0.040807642 0.009053339 0.02326653

classifier.2.weight f4 [84, 120]
00000000: 8c96 76bb be10 cfbd 66b2 b73c bdfa 413d
00000010: 71a1 b1bd b8f9 aa3d d959 db3c 8b93 283b
00000020: fb5c d03d da28 023d 470f a3bd 94ed d0bd
00000030: abd0 133d 3186 afbd 0013 cbbd 7d63 46bc
00000040: 7dfb c13d 3cca 393d 1f21 9b3d 581a adba
00000050: 0520 47bc 6be4 a73b c63f 413d 24b7 33bd
00000060: 882e c6bd c78e 423c 187c bebb 58b9 34bc
00000070: af84 243d 5f83 0f3d be3b 45bb f433 0bbd
00000080: 168a 9b3d c473 99bd 2739 c53c 45eb 9d3d
00000090: 7ca2 08bd d518 abbd 4f15 503d 0b83 02bd
000000a0: e09b a23d 0b72 fb3c 6b22 24bd 6ea5 c6bc
000000b0: 67ca 703d a242 87bd 3cf4 b93d 463c b2bd
000000c0: 1ce9 ba3d 0815 dd3d 3823 623d ceb6 1d3d
000000d0: ec82 9f3d 0f59 d33c d202 e0bc 780f 123d
000000e0: 79b6 b73d faaa dbbd 1479 dfbc 8c10 8c3d
000000f0: 4391 9bbd e09c 643d 61ed ae3d 8d5d c63d
00000100: 9342 93bd fa4c 49bc 22c0 debb a80a 933d
00000110: 4476 ca3d 0e69 42bc 5465 1c3c 36f8 42bd
00000120: 73ef f63c a5d0 143d 33a2 a43d 2e2e 863d
00000130: 6f46 ba3c 3047 b7bd a436 53bc b760 d53c
00000140: f928 e1bd 7ebc cabd 86cd 973c c172 cabc
00000150: a532 b23d 83c0 7fbd d9b2 d63c c460 173d
00000160: 7a46 50bc 1856 05bd 8b09 85bc 20be 44bd
00000170: a306 ae3c 2dd7 a33d 1f81 64bc 8627 a3bc
00000180: afc7 dd3d 5cdd 803d 68ec 8b3b 201f 9139
00000190: f27d 0e3d 5bea f1bc 8c46 90bd 5863 abbd
000001a0: 074d 8abd 087b 9f3d 6d3a b1bd 7b9d b33d
000001b0: 49bb e33b 4629 bebd 3d49 083d 0c8f 8fbd
000001c0: 4502 a9bc 65e8 973d 0635 8fbc 5c5e 373c
000001d0: e078 1dbd 2838 893d 9cf5 953d f3e0 553d
000001e0: 5e29 e03c 5cd2 32bd 7acf 053d d70c 2b3d
000001f0: 02b3 633d 3dae 333c e0f5 2ebc 2bfd 1d3d
00000200: 4a21 6abd 210e 4ebd b34a abbd 5364 c0bd
00000210: 8ddc de3c 3bfb 32bd ae7e a83c 770a 32bd
00000220: ff81 283d e615 8f3d 7e6c 29ba eb88 65bc
00000230: 5b91 87bd 878e 783d 9457 983d 4acf 9e3d
00000240: 6453 aa3c bc0d 4e3d 393f c3bc 2637 23bd
00000250: d0e7 78bd 7c70 d83b 1d44 053d fa0b a43c
00000260: d78b 5c3d 7299 a93b 426b 813a 94e5 74bd
00000270: f34a 20bc 9751 babd feec 8fbd 756e 553d
00000280: 40f3 c43c 689c dabc 34f2 56bd 3517 ac3d
00000290: ea4d b5bd 82dc 96bd 4d65 0d3c 0af7 843d
000002a0: 70a8 6abc f408 a03d c887 3c3d 31a6 82bd
000002b0: 1234 7eba 58d2 8a3c 45e9 87bd 0fbc a73d
000002c0: a5fb 41bd 5f73 483d ba4e a4bc 9fcc 98bd
000002d0: 8691 c83c 09e4 5f3d d5e8 043d 9ec8 c7bc
000002e0: 5662 b03d 0a24 223c fc23 783d 526e ad3d
000002f0: 1502 ce3c 7bc1 4c3c 8e31 b1bc c449 26bd
00000300: a315 533d aac2 2d3c 2ee7 173d 6c2e 703d
00000310: c96a 213d ad3e debb 0a8a e43c 0905 b7bd
00000320: f11c a3bd 2df1 8cbd 7329 8f3d 596c 5a3d
00000330: 519d 8dbd 85a3 d03c c740 4dbd fb70 14bd
00000340: c3bf b63d 2206 0bbd 066c ddbc 0106 343d
00000350: e39e 993d ba03 eb3b 66a5 b33c 5643 223d
00000360: 3380 34bc 3d50 88bc c026 6f3c 9b78 fdbc
00000370: 9d97 93bd 9554 68bd ca57 2dba a1f2 40bd
00000380: 13f6 843d c5c4 863d 4cae 553d fe7a f93c
00000390: ed45 8c3d bc26 223d cc72 0b3d 16d9 e93c
000003a0: 9451 1b3c dc2d 863d 6a7f a6bd d02f 7dbd
000003b0: d9ea c83d 238f 71bd f0d6 58bd ee9d 69bd
000003c0: 713d 95bd 7a09 083d 3aba 85bd fbb0 913c
000003d0: 4f38 2b3d 5c6e 513d bb24 763d e524 8dbd
000003e0: c811 17bd 7e08 72bd 7621 8b3d e5a3 efbc
000003f0: 9a12 51bd 81fd 8bbd e37e 8a3d 0186 eebc
-0.0037626354 -0.10110615 0.022423934 0.047358263 -0.08673371 0.08348411 0.026776241 0.0025722708
0.101739846 0.03177724 -0.07961898 -0.102015644 0.036087673 -0.08570517 -0.09915733 -0.012108681
0.09471796 0.04535888 0.07574677 -0.0013206704 -0.01215363 0.005123665 0.04717996 -0.04387583
-0.09676844 0.011874861 -0.005813133 -0.0110305175 0.0401656 0.035037395 -0.0030095424 -0.033985093
0.07594697 -0.07492784 0.024075104 0.0771089 -0.033358082 -0.08354346 0.05080157 -0.031863254
0.07939887 0.030694028 -0.040071886 -0.024248805 0.058786776 -0.06604506 0.09079787 -0.087029025
0.09126493 0.10795027 0.05520937 0.038504414 0.07788643 0.025799302 -0.027345095 0.035659283
0.08970351 -0.107259706 -0.027279414 0.068390936 -0.07596066 0.05581367 0.0854137 0.09685812
-0.071904324 -0.012286419 -0.0067978064 0.07179767 0.09885839 -0.011865867 0.009545643 -0.047599994
0.030143475 0.03633179 0.080387495 0.06551777 0.022738663 -0.08949125 -0.012891445 0.026047094
-0.10994143 -0.09899233 0.018530618 -0.024712922 0.08701066 -0.062439453 0.026208328 0.036957517
-0.012712115 -0.03255281 -0.016239902 -0.04803288 0.021243399 0.08000026 -0.0139468005 -0.019916307
0.10829102 0.06292221 0.004270125 0.00027679745 0.03478808 -0.029530695 -0.07044706 -0.08368558
-0.06752973 0.07787138 -0.08653722 0.087702714 0.0069498164 -0.09285216 0.03327297 -0.07009706
-0.020630965 0.074173726 -0.017481338 0.011191931 -0.038445354 0.06700164 0.07322237 0.05221648
0.027363475 -0.043657646 0.03266857 0.041760292 0.055590637 0.010966835 -0.010678738 0.038571518
-0.057160653 -0.050306443 -0.08363857 -0.09394135 0.027204776 -0.043696623 0.020568218 -0.04346701
0.0411396 0.06986599 -0.0006463005 -0.014009695 -0.06619521 0.0606828 0.07438579 0.07754381
0.020791717 0.050306067 -0.023833858 -0.039847516 -0.06076795 0.006605206 0.03253566 0.020025242
0.0538443 0.005175763 0.0009873884 -0.059789255 -0.009783494 -0.09097593 -0.070276245 0.052107293
0.024041772 -0.026685908 -0.052477077 0.08402864 -0.088527516 -0.07366277 0.008630109 0.064924315
-0.014322385 0.07814208 0.04602793 -0.06379355 -0.000969709 0.016946003 -0.066362895 0.08190166
-0.047359128 0.04893815 -0.020057071 -0.074609034 0.024483453 0.05466083 0.03244861 -0.024387654
0.08612506 0.009896288 0.060581192 0.084683076 0.025147477 0.012497301 -0.021630075 -0.040597692
0.051534306 0.010605494 0.037085705 0.05863802 0.03940848 -0.006782374 0.027897853 -0.08936507
-0.079645045 -0.06881938 0.06990328 0.053325985 -0.06914771 0.025468597 -0.050110605 -0.03624056
0.089232944 -0.033941396 -0.027029049 0.04395104 0.07501008 0.007172075 0.021929454 0.039614998
-0.011016893 -0.016639823 0.014596641 -0.030941298 -0.07206652 -0.05672129 -0.0006612508 -0.04710639
0.064922474 0.065804996 0.052168176 0.030454155 0.06849275 0.03958772 0.034045026 0.028545897
0.009479899 0.06551716 -0.08129771 -0.061813176 0.09810419 -0.058974396 -0.052939355 -0.05703538
-0.0728711 0.033212163 -0.065296605 0.017784586 0.041801747 0.051130638 0.060093623 -0.06891803
-0.036882192 -0.05909013 0.067934915 -0.029252956 -0.05104313 -0.068354614 0.06762483 -0.029116632

classifier.2.bias f4 [84]
00000000: 3f89 b2bd 6501 2dbd 83f8 cc3b b3ac 893c
00000010: 598e 21bd 50ad a2bd 2f97 c0bc 01ed 28bd
00000020: ce19 bcbd 9c82 77bd bd13 0e3d e678 de3a
00000030: 7979 a8bd 1cd0 b23d 27c3 ac3d 1b13 b0bd
00000040: 8033 c03d fe63 f33c 1525 973d 5b9b 0a3c
00000050: 69c1 8f3d 8e3e 8ebd 237c 24bd 7a91 acbd
00000060: c2b0 84bd 8401 99bd 0e2e 2f3d de74 91bd
00000070: c9ef b63c be9e 94bd 9404 573a ee2b 1bbd
00000080: bab3 753d cd1a 96bd 925f 6a3d 5df0 a53c
00000090: 6ece 833d bec3 213d 8b50 af3d 28fc b83c
000000a0: 7458 6fbd 32bb 933d c233 253d 2ee0 9dbd
000000b0: 837e 09bd 3975 653d 5704 e73d 7261 8b3c
000000c0: 7afc bf3d ce10 9a3d 63f0 68bc aae6 2c3d
000000d0: fbec 993d 5fb8 babd f7c5 43bd 70b3 c83d
000000e0: 791d 8b3a 6092 963d 1bcf 12bc 518f 2dbd
000000f0: 0754 97bd f315 983d c4c6 5cbd 703d 8e3d
00000100: 29e2 793b e0c2 81bd fe8d 31bc b22a 803d
00000110: 1bfe 38bd 3c8b 63bd 1f9f 89bd e6f5 33bd
00000120: cdfd 623d c0e8 a73d cc93 4c3d 89da 543d
00000130: 6ac3 a4ba c029 08bd a0cd dabc c87f 373d
00000140: fef5 6d3d 2876 b83d 05cc 0ebc 8537 11bd
-0.08717584 -0.042237658 0.006255211 0.016805982 -0.039442394 -0.07943213 -0.02350959 -0.04124165
-0.09184609 -0.060427293 0.034686793 0.0016973286 -0.08226294 0.087311 0.0843566 -0.08597394
0.09384823 0.029710766 0.0738012 0.008459891 0.07019312 -0.06945525 -0.04015745 -0.08426185
-0.064790264 -0.07470992 0.04276853 -0.07102369 0.022331135 -0.0725684 0.00082022813 -0.03788369
0.059985854 -0.073293306 0.05722005 0.020256216 0.06435858 0.039493315 0.08560284 0.022581175
-0.058433965 0.07213439 0.040332563 -0.077087745 -0.033567917 0.056019995 0.11280125 0.017014239
0.09374328 0.075227365 -0.014217469 0.042212166 0.075159036 -0.09117197 -0.047796216 0.0979985
0.0010613642 0.073521376 -0.008960511 -0.042373005 -0.07389074 0.074260615 -0.053900495 0.06945312
0.0038129187 -0.063359976 -0.010837076 0.062581435 -0.04516421 -0.055552706 -0.06719803 -0.04393568
0.055417825 0.081986904 0.049945638 0.051966224 -0.0012570445 -0.03324294 -0.026709378 0.044799596
0.058095925 0.090069115 -0.008715634 -0.03545334

classifier.4.weight f4 [10, 84]
00000000: d779 403e eae7 ba3d 309e 0cbd 58f4 62be
00000010: 7dd0 53bb 1982 13bd e151 2f3c 5b4d 9cbd
00000020: aa1a 83bc 7606 723c d612 e0bd 771b 9e3c
00000030: 972f 55bb e7ad 863b a093 89bd c667 2a3d
00000040: f74e 48be cd9b 85bd ce16 8e3e a8a7 873e
00000050: dcd3 72be ea03 4a3e 9b1f 9dbd 230a c2bd
00000060: 7e11 2b3e 401b 29bd 76fb 253e 8196 7dbd
00000070: 102a 90bd da12 7bbd cf9f d6bd eaec d5bd
00000080: 81d8 2ebe 9aaa 3cbc 2421 5ebe 7c74 20be
00000090: e507 613e 6e02 04be 35aa 5dbe 385b b13d
000000a0: f8d7 253c 3013 1bbe a195 c43d c9c8 823d
000000b0: ffbe acbd 966a 4b3e 9b2d 36be 3571 a8bd
000000c0: 321a a13b 0a40 c1bd 2b33 b0bd 16ab fc3d
000000d0: 8f95 8abd 6d33 15bd aa44 08bd 6301 7f3c
000000e0: 847e 813e 9c26 d63d c204 033d 93a0 11be
000000f0: d2a1 303d c714 2b3e 0a66 bd3c d927 c1bd
00000100: 8c99 c2bd b6f6 083e 1ebc 7f3d 247b 92bc
00000110: 7965 36bd a4a8 2abc 69a5 993d db78 a23d
00000120: a770 d43d 8e1a 29bd 679d 79bb df30 313e
00000130: f6b1 79bd 6b00 9a3c e0e7 59bd a4dd b6bd
00000140: 37d9 c7bd 6a06 16be 9b0e bfbd 14f6 b4bc
00000150: e1c0 d83d 0cc8 a5bd 1540 abbd 1d69 d3bd
00000160: ba17 4bbe 5d35 9e3d bd29 a73d f59d 7a3d
00000170: ea73 733d 9ec8 5b3d 1ba5 953c e94d 07bd
00000180: 7b7a f13d 1928 57bd c9bd 793d 3d42 abbd
00000190: 7071 a53e 27d2 8d3e e03e 7bbd 4a6b ecbd
000001a0: 9eb3 f63d b640 0cbd 89b7 c8bd e83b dd3b
000001b0: 8986 dc3d c74d c4bc fcf6 ecbc 1648 a4bd
000001c0: ea33 07be 7ab9 babc 598f 043e 8a27 85bc
000001d0: 770d 533e 9bef b23d c311 e73d 77e5 e73c
000001e0: da42 52be b186 b0bd 02e1 45be dfef 60bd
000001f0: d144 47bd 0487 dcbd 2797 abbd 4ef0 d63c
00000200: ee6f 7abe 861c 26bd 9ec9 583e 8685 173e
00000210: e575 0fbd bbda 203e 4a10 063c 2e01 0fbe
00000220: f176 6e3d ecf0 f23d 46c0 353d 29c4 363e
00000230: bc29 013e 035c bfbd e88b 4ebe f97e 913d
00000240: 366c a63d e63a 6f3c 188b 953d d897 bc3d
00000250: 4bc2 c2bd 6ca8 9a3d 21c3 1bbc 7be8 9cbe
00000260: 69b9 bfbc abf2 72bd b054 fdbc 63f6 d93d
00000270: 4809 00be 629a 0fbe b5d0 bcbd 9cb0 c33d
00000280: f0e7 493e 2b98 27bd 9dad 453e 3e31 163e
00000290: 8413 5fbe 7c64 02be e999 cfbd 3534 51bc
000002a0: a7c1 88bd 0770 a63c 5cd3 cb3c 2c0f 8fbe
000002b0: f6d6 dc3d 3555 893d beb2 023d d156 c5bd
000002c0: 730a 4c3e 81c9 0b3e ab14 b93d ed5b 4abd
000002d0: a1f3 dabb c4c0 48be dbfa eb3c 1bd7 a93d
000002e0: fc0f 763c 13bb 663e 7c22 383c fa3d 063e
000002f0: 2f2f 18be d895 0dbe 0964 c0bd 3045 843d
00000300: 92a1 413e d311 1cbe 1d00 d7bc a726 c3bd
00000310: fdfa 423e 9f71 8d3d 8864 623e abd3 a13d
00000320: 3d9f 1fbe 8d47 d0bd 3762 77bc 190f 933d
00000330: 2c34 b5be a095 dc3d 55e3 5abe 37a8 c2bc
00000340: 0c85 1fbd b2fc 96bd 36f9 053e 16aa 50bd
00000350: 2790 18be c0f1 783d d30c ab3d a638 b33d
00000360: 2fdb 4f3e 2385 e93d 574b 99bd e615 3c3e
00000370: 5fe6 a2be af72 87bd 5013 78bd 3f5b 663d
00000380: f614 74be c7c0 143e 1310 053e 0264 18be
00000390: 69e8 8cbd 459a 453d 0ec4 b8bc aee2 d03d
000003a0: 9fb2 df3c 821f 35bd 537b 733e f37c 243e
000003b0: c9ab e03d b03b dc3d ac9e 65bb 55b6 c8bd
000003c0: 538e c4bd 5a49 773e f4d1 14be 8464 3cbe
000003d0: 0d90 3ebd a38f 8cbd 952b 3ebe 596b 17be
000003e0: c58e fe3d 3d9d d6bc a2c4 5cbd fe55 c0bc
000003f0: face a3bd d365 c23d 97cf 42bd 8f5e 3ebe
0.18796478 0.09126265 -0.034330547 -0.22163522 -0.0032320314 -0.036012743 0.010700674 -0.07631942
-0.016003925 0.014772048 -0.10941093 0.019300206 -0.0032529586 0.0041100862 -0.0671761 0.041602872
-0.19561373 -0.06523857 0.27751774 0.264951 -0.2371363 0.19728056 -0.07672044 -0.0947459
0.16705891 -0.041285753 0.16209206 -0.06191111 -0.07039273 -0.061297275 -0.104797 -0.104455784
-0.17074777 -0.011515284 -0.2169233 -0.15669435 0.21975668 -0.12891552 -0.2164696 0.08659977
0.010122292 -0.15144038 0.09598852 0.06385953 -0.08434867 0.19864878 -0.17790835 -0.082247175
0.004916453 -0.094360426 -0.086035095 0.123373196 -0.06766807 -0.036425997 -0.03326861 0.015564295
0.25291836 0.10456583 0.03198696 -0.1422141 0.043123074 0.16707145 0.023119945 -0.094314285
-0.09501943 0.13375363 0.062435262 -0.017880984 -0.044530366 -0.010416184 0.075022526 0.079332076
0.10373049 -0.04128509 -0.0038088204 0.17303799 -0.060960732 0.018799027 -0.05319965 -0.08928993
-0.09758227 -0.14650884 -0.09328958 -0.022089995 0.10583664 -0.080947965 -0.08361832 -0.10322783
-0.1983327 0.07725022 0.08162258 0.061185796 0.059436716 0.05365812 0.018267205 -0.033033285
0.117909394 -0.052528474 0.06097201 -0.08362243 0.32313108 0.27699396 -0.06133926 -0.11543901
0.12045978 -0.0342414 -0.098006316 0.006751526 0.10767848 -0.023962868 -0.028926365 -0.08021562
-0.13203397 -0.02279352 0.12945308 -0.016254205 0.20610605 0.08737107 0.11282685 0.02830766
-0.20533314 -0.0861944 -0.19324115 -0.05491626 -0.048649613 -0.1076794 -0.083784394 0.026237633
-0.2445676 -0.040554546 0.21170661 0.14797029 -0.035024542 0.15708439 0.008182595 -0.13965294
0.0582189 0.118623585 0.04437282 0.17848267 0.12613577 -0.09343722 -0.20170557 0.07104296
0.08126108 0.014601445 0.07301921 0.092086494 -0.09509715 0.07551655 -0.009506972 -0.3064612
-0.02340384 -0.059313457 -0.030924171 0.10642698 -0.1250354 -0.14023736 -0.09219495 0.0955517
0.19717383 -0.040916603 0.1930451 0.14667222 -0.21784788 -0.12733644 -0.10136778 -0.012768795
-0.06677561 0.02031709 0.024881057 -0.27941263 0.10783188 0.06705705 0.031908743 -0.096356995
0.19925861 0.13651086 0.09037145 -0.049404074 -0.006681875 -0.19604784 0.02880614 0.08292981
0.015018459 0.225323 0.0112386905 0.1310958 -0.14861749 -0.13826692 -0.0939408 0.06458509
0.1890929 -0.15241174 -0.026245171 -0.09528857 0.19041057 0.06906437 0.22108662 0.079017006
-0.15588088 -0.10169897 -0.0150991 0.07180614 -0.35391366 0.10770726 -0.21375783 -0.023761852
-0.038945243 -0.073724166 0.13083348 -0.050943457 -0.1489874 0.060777426 0.083520554 0.08751039
0.20298456 0.11402347 -0.07485073 0.18367729 -0.31816384 -0.06613671 -0.060565293 0.056239363
-0.23836121 0.14526664 0.12994413 -0.148819 -0.06880266 0.048242826 -0.022554424 0.10199486
0.027306853 -0.0442195 0.23777513 0.1606329 0.109702654 0.10753572 -0.0035037203 -0.09800402
-0.09597459 0.24149075 -0.14533216 -0.18397719 -0.046524096 -0.06863334 -0.18571313 -0.14787044
0.12429575 -0.026198024 -0.05389846 -0.023478504 -0.07998462 0.09492078 -0.047561254 -0.18590759

classifier.4.bias f4 [10]
00000000: 12f2 96bd 549e 0e3e 079d f4bd 3d72 40bd
00000010: 9d11 053d 1822 3e3d a405 913c 7ba2 82bd
00000020: a145 983c 37d2 d9bc
-0.0737039 0.13927585 -0.11944013 -0.046983946 0.0324875 0.046419233 0.017702885 -0.06378647
0.01858789 -0.026589496
